…
*************************** 6 57 [['', '', '', '', '', '', '', '', '', '', '', '', ''], ['NBA', '', '', '', '', '', '', '', ''], ['', ''], [''], ['', '', '', ''], ['', '', '', '', '', '', '', '', '', '', '', '', '', '', '', '', '', '', 'NBA', '', '', '', 'NBA', '', '', '', '', 'NBA', '', '', '', '', '', '', '']] 0
!
*************************** : 6002
*************************** <unk>
*************************** <pad>
<unk>
<pad>
*************************** 98  step:
*************************** sample_batch: 2 torch.Size([512, 60, 15]) torch.int64 torch.Size([512]) torch.int64
----------------------------------------------------------------
        Layer (type)               Output Shape         Param #
================================================================
         Embedding-1          [-1, 60, 15, 100]         600,200
           Dropout-2          [-1, 60, 15, 100]               0
               GRU-3              [-1, 15, 128]          63,744
            Linear-4               [-1, 15, 64]           8,256
            Linear-5                [-1, 15, 1]              64
               GRU-6              [-1, 60, 128]          74,496
            Linear-7               [-1, 60, 64]           8,256
            Linear-8                [-1, 60, 1]              64
           Dropout-9                  [-1, 128]               0
           Linear-10                   [-1, 10]           1,290
================================================================
Total params: 756,370
Trainable params: 756,370
Non-trainable params: 0
----------------------------------------------------------------
Input size (MB): 0.003433
Forward/backward pass size (MB): 1.484779
Params size (MB): 2.885323
Estimated Total Size (MB): 4.373535
----------------------------------------------------------------
********** sample_out: torch.Size([512, 10])
…
