…
*************************** 64 223 ['', '', '', '', '', '', '', '', '', '', '', '', '', 'NBA', '', '', '', '', '', '', '', '', '', '', '', '', '', '', '', '', '', '', '', '', '', '', '', '', '', '', '', '', '', '', '', '', '', 'NBA', '', '', '', 'NBA', '', '', '', '', 'NBA', '', '', '', '', '', '', ''] 0
!
*************************** : 10002
*************************** 98  step:
*************************** sample_batch: 2 torch.Size([512, 500]) torch.int64 torch.Size([512]) torch.int64
----------------------------------------------------------------
        Layer (type)               Output Shape         Param #
================================================================
         Embedding-1             [-1, 500, 100]       1,000,000
           Dropout-2             [-1, 500, 100]               0
            Conv1d-3             [-1, 250, 500]          75,250
           Dropout-4             [-1, 250, 500]               0
              ReLU-5             [-1, 250, 500]               0
            Conv1d-6             [-1, 250, 500]         187,750
              ReLU-7             [-1, 250, 500]               0
            Conv1d-8             [-1, 250, 500]         187,750
         MaxPool1d-9             [-1, 250, 250]               0
             ReLU-10             [-1, 250, 250]               0
           Conv1d-11             [-1, 250, 250]         187,750
             ReLU-12             [-1, 250, 250]               0
           Conv1d-13             [-1, 250, 250]         187,750
        MaxPool1d-14             [-1, 250, 125]               0
             ReLU-15             [-1, 250, 125]               0
           Conv1d-16             [-1, 250, 125]         187,750
             ReLU-17             [-1, 250, 125]               0
           Conv1d-18             [-1, 250, 125]         187,750
        MaxPool1d-19              [-1, 250, 63]               0
             ReLU-20              [-1, 250, 63]               0
           Conv1d-21              [-1, 250, 63]         187,750
             ReLU-22              [-1, 250, 63]               0
           Conv1d-23              [-1, 250, 63]         187,750
        MaxPool1d-24              [-1, 250, 32]               0
             ReLU-25              [-1, 250, 32]               0
           Conv1d-26              [-1, 250, 32]         187,750
             ReLU-27              [-1, 250, 32]               0
           Conv1d-28              [-1, 250, 32]         187,750
        MaxPool1d-29              [-1, 250, 16]               0
             ReLU-30              [-1, 250, 16]               0
           Conv1d-31              [-1, 250, 16]         187,750
             ReLU-32              [-1, 250, 16]               0
           Conv1d-33              [-1, 250, 16]         187,750
        MaxPool1d-34               [-1, 250, 8]               0
             ReLU-35               [-1, 250, 8]               0
           Conv1d-36               [-1, 250, 8]         187,750
             ReLU-37               [-1, 250, 8]               0
           Conv1d-38               [-1, 250, 8]         187,750
          Flatten-39                 [-1, 2000]               0
           Linear-40                   [-1, 10]          20,010
================================================================
Total params: 3,723,760
Trainable params: 3,723,760
Non-trainable params: 0
----------------------------------------------------------------
Input size (MB): 0.001907
Forward/backward pass size (MB): 11.211472
Params size (MB): 14.205017
Estimated Total Size (MB): 25.418396
----------------------------------------------------------------
…
